Assets/AI agents/My Behavior.onnx (onnx, 76119 bytes, 6 tensors)

network_body._body_endoder.seq_layers.0.weight f4 [128, 5]
00000000: 9098 f1be 0210 33bd 7a96 4f3f 92b9 11bf
00000010: 6744 863d 6088 d5bc 0f46 56be 142d 8abe
00000020: 216a 16be 234e 0e3e 0432 983e ad12 1bbf
00000030: 5049 09bd f52f 443d cf6d 033f 6cb9 96be
00000040: 2913 703f a1f9 ae3e 6c34 9ebe 6117 ddbe
00000050: 1571 be3e 77c7 6c3e b0f2 4e3f 2fc5 5d3f
00000060: a18f c03d 5e87 96bd 1a08 2fbf 5d6f 0b3e
00000070: 9599 8e3e 491b 3e3d 47d3 04bf 5475 95be
00000080: e340 083e 58e6 e1bc 5c22 07bf 99be 0a3f
00000090: f4d8 8e3d 4f6c 2a3e bbfa 4dbf 22e7 4e3f
000000a0: 3f31 6cbe e5c4 0bbe 40cf d6be ad72 5d3e
000000b0: 5cf1 d33d 9a8e 92bd 8422 393f 11ef 88be
000000c0: d7c3 983e 8a65 a5be 30a6 f8be 0470 003f
000000d0: cb92 03bf e2bf c4bd 0500 683f 5f30 563e
000000e0: 9f5d b23d 66c4 643e 6e82 403e d348 24be
000000f0: c10c 43be f0b6 f9bd a86b 2fbe 37bb 98be
00000100: 9b51 043f b351 d9bd 0878 15bf 54a6 18bf
00000110: c8cb a03e 7a79 6d3f 5fad 26bf d549 033f
00000120: e26f 143e 00dd 853f 5317 273e e5ae 693e
00000130: c7ad d23e 16bc 0a3d e44d 93be 15a4 de3d
00000140: 2be3 28bf 825e 33bf 2042 fa3e 51e0 813e
00000150: 9eaf bebe 9861 003f 5f7f a83e 6960 e43d
00000160: 14ba 95be 4d95 aebd 5134 39be bef6 3abf
00000170: eb7c a8be 4d4a 2abe 0c0f 40bf d2d7 243f
00000180: 590a 24bf c69d 4b3f e53a 06bd 43d6 7c3d
00000190: d4c5 cdbd fa4e 01bf 5def 253d 563b c73e
000001a0: 10f9 d33e a137 0ebe f128 33be fcce 0d3e
000001b0: f494 3b3e 1203 873d c24c 513f f061 d13e
000001c0: 9ac4 2dbf fe0a 993d 6b9a a4be e696 a83e
000001d0: e1a2 f23e 2458 0e3f 2950 b03e 61fa eb3c
000001e0: 07b4 003d 625f a7be ba8d 18be 485b 95be
000001f0: 21ee 8ebf 4728 20be 5998 4abc abfa 3d3f
00000200: d6bb 863e 3da6 8a3e 42db 1dbf 94f6 bdbe
00000210: 1964 1bbc 5942 a43e 421e 233d 5ef6 75bc
00000220: 39e2 363e 119c 01bf 2b28 153e a27d 7fbe
00000230: 012c 38bf 7c1c fcbd 73a9 84bf 019f 2dbf
00000240: daa9 843e 577a 1cbf 4381 043f b201 fabe
00000250: 4e6e b23e 9a0b 273d 237f 51be 1a84 123f
00000260: 2db5 9bbe c6d1 f2be 31d5 babe 37c8 1d3e
00000270: 7cfc ecbe 7dc8 a73f 87f7 27be c5ad 463e
00000280: 9f71 353e 0886 5c3e b6c4 3f3e e7f8 613f
00000290: 72ab 953d a9cb 59bf aef7 79be be38 6a3d
000002a0: 6ca9 2abf b130 1abf 5b5a a03b b479 5abe
000002b0: c428 cfbe d093 d13e 8251 43bf e868 593d
000002c0: 6c56 51bd bacc a43f c68d 0f3f 697e 7abf
000002d0: 8e2c 2abc 69b0 f33e fe09 dbbe e720 4f3f
000002e0: 4605 02be 482a ec3e 8096 84bd f18c eb3e
000002f0: 7775 0f3f 6ef8 b9be 112d 943f fcf1 343e
00000300: fb9d 9ebf 7111 5f3f 3704 52be 9520 a8be
00000310: c7d2 333f c79f fdbe 66ab 1c3f 7f8c 063f
00000320: 4faa 83be a18d df3e 9bca ebbf ea21 473f
00000330: 65db f53d 71fe 23bd 9c7b 953d 62e8 b3be
00000340: da4f a2bd 39f7 48bf 523a 8b3e 948b 143f
00000350: d5b3 2dbf ab62 aabd f71d 14be 39a1 123e
00000360: c84a 32bd 8591 0b3f 9eec 9abe 3f83 8d3f
00000370: 74b7 ec3e 2151 89be 59cd a5be 6237 9c3e
00000380: abeb 9d3e 9bbd 023f d822 313e ebde 693e
00000390: 26d8 88be b7e3 33be 11ce 043f 1b2f c83e
000003a0: 539e d53d 3821 3abf 66ac 11bf 00d4 b5be
000003b0: 768d c4bd 40cd acbe 1ddc acbe 1bf5 26bf
000003c0: 93c1 99be 7a83 4abd 4868 9fbe 5c54 543f
000003d0: 97aa 683f a0b2 d93e 76c5 313f 3979 163e
000003e0: d054 99bd 78e3 adbe e0a4 053f 4f3d a83d
000003f0: 97d5 c33e ea86 9ebe 7d2c 913e f632 28bf
-0.47186708 -0.043716438 0.81088984 -0.5692378 0.065560155 -0.026066005 -0.20925163 -0.26987517
-0.14688922 0.13896994 0.2972566 -0.6057537 -0.033517182 0.047897298 0.5133943 -0.2943834
0.93779236 0.34174827 -0.3089937 -0.431819 0.3719565 0.23122965 0.8083906 0.86629003
0.09402395 -0.07350038 -0.68371737 0.136167 0.2785155 0.04641274 -0.51884884 -0.29191077
0.13306002 -0.027575657 -0.52786803 0.5419708 0.06974974 0.16642879 -0.8046071 0.8082143
-0.23065661 -0.13649328 -0.41954994 0.21625777 0.1034877 -0.07156105 0.7231829 -0.26744893
0.29836914 -0.3230403 -0.4856429 0.5017092 -0.51395863 -0.09606911 0.9062503 0.2091689
0.08709263 0.22340545 0.18799755 -0.16043405 -0.19047834 -0.12193096 -0.17130911 -0.29830334
0.5168702 -0.10611286 -0.5838628 -0.59628797 0.31405473 0.92763484 -0.65108293 0.51284534
0.14495805 1.0458069 0.16317491 0.22820623 0.41148207 0.03387078 -0.28770363 0.1087114
-0.6597163 -0.7006608 0.48878574 0.25366452 -0.3724336 0.50148916 0.32909676 0.11151201
-0.2924353 -0.085245706 -0.18086363 -0.7303275 -0.32907805 -0.16629906 -0.7502296 0.64391816
-0.6407829 0.7953762 -0.03277101 0.061727773 -0.10047498 -0.50511134 0.040511478 0.38912457
0.41400957 -0.13888408 -0.17496087 0.1384849 0.1831854 0.065923825 0.8175775 0.40895033
-0.67878115 0.074728 -0.32149062 0.32927626 0.47389892 0.5560324 0.34436157 0.028805913
0.031421687 -0.3268996 -0.14897814 -0.29171205 -1.1166421 -0.15640365 -0.012365424 0.74210614
0.26315182 0.27079955 -0.61662686 -0.37102187 -0.009484314 0.3208187 0.039823778 -0.015012352
0.17859735 -0.50628763 0.14566104 -0.24950269 -0.71942145 -0.123101205 -1.0364212 -0.67820746
0.25910836 -0.61124176 0.5175974 -0.48829418 0.3484978 0.04078255 -0.20458655 0.5723282
-0.30411664 -0.4742567 -0.36490777 0.15408407 -0.4628638 1.3108059 -0.16403018 0.19402225
0.17719124 0.21535504 0.18727383 0.8827042 0.07308091 -0.85076386 -0.24410889 0.05718302
-0.6666477 -0.6023055 0.0048935837 -0.21335489 -0.4046079 0.40933084 -0.76296246 0.053078562
-0.05110781 1.2874978 0.56075704 -0.97849137 -0.010386599 0.47595528 -0.4278106 0.8090958
-0.12697324 0.46126008 -0.06474018 0.46005967 0.5603861 -0.3632235 1.1576253 0.17670435
-1.2391962 0.8713599 -0.2050942 -0.32837358 0.70243496 -0.49535963 0.61199033 0.5255813
-0.25715873 0.43662742 -1.8421205 0.77786124 0.12004737 -0.040037576 0.07298967 -0.35138232
-0.07925387 -0.7850223 0.27192932 0.5802548 -0.67852527 -0.08319601 -0.14464556 0.14319314
-0.04352835 0.5451892 -0.3025865 1.1055678 0.46233714 -0.2681971 -0.3238323 0.30511004
0.30843863 0.51070565 0.17298448 0.22838943 -0.26727408 -0.17567335 0.5187693 0.3909844
0.104305886 -0.7270694 -0.56903684 -0.35513306 -0.09597294 -0.33750343 -0.33761683 -0.6521775
-0.30030498 -0.049441792 -0.31134248 0.8294122 0.908853 0.42519093 0.69441926 0.1469468
-0.0748688 -0.33962607 0.52204704 0.08214819 0.38248894 -0.30962306 0.28354254 -0.6570276

network_body._body_endoder.seq_layers.0.bias f4 [128]
00000000: a2bd 1e3d bcc6 13bc 90ca 853c a5d5 f23d
00000010: 7076 3d3c 0edf 4b3d 0f34 fdbc c048 263d
00000020: 8fa9 d23c 6151 cb3c 80f6 d13d b7a1 8cbb
00000030: 59be db3d 9b10 b33d 379a e73c b2b0 8b3d
00000040: 825d 073c a52a 863d 5acb 8b3c 296b d9bc
00000050: 8d31 f73b cff1 1e3c c3fb 263d 8910 863d
00000060: ac04 cdbc 6772 24bd 9425 c73c a08c 14ba
00000070: daee e2bc 03c2 1d3d 946b cd3d e263 a63c
00000080: c77e bd3c bb36 cb3c 213e ee39 5823 0cbd
00000090: 081a 773c 5d4a 9139 d8e3 f03b a23e 613c
000000a0: 31f3 5cbd 5bf6 15bd 5700 f03b 8ac1 7e3d
000000b0: 19bb 053d 910b 823d 95a4 8e3d bf4d 72bd
000000c0: 5d7b f23c dd97 ec3d 844e d13c ace9 313d
000000d0: cc49 313d 6fcd 183d c07d 3abd 1d3d a53d
000000e0: d601 86bd efda e0bc df06 da3c fb52 a03c
000000f0: 2677 503d e0be 75bc 8260 483c fd95 3e3c
00000100: a4db 923c f41c 1c3d b09d 7d3d a2e5 853d
00000110: 23da a43c 7e2f 493d 2667 95bc 040a 02bd
00000120: f55b 0f3d baee 823c b920 233d 61bf fe3c
00000130: 7f59 d33d ab86 98bc 5b61 9d3d 1ecf 773c
00000140: b493 6cbb d874 883d 03f8 2a3d 709f ed3d
00000150: c1b5 963d edca 9c3d 977a 713d e518 66bc
00000160: 47f4 303d 64f6 f23c 7203 81bd 9d00 933d
00000170: a7fb 893d ee23 613d 29f8 ffbc b98d c93c
00000180: 74e3 ec3c 80a3 3ebd b85e 813d e026 f63d
00000190: 8f7a c73c 7316 4b3d b38b 9a3c 3fcc 52bc
000001a0: 4d78 223c 0e30 ae3d ecfc 05bd 50dc eabb
000001b0: 3b5b 193d 88fa 893b cfc1 973d 8846 733d
000001c0: 1350 74bd dc74 443d 1ce6 1abd 14bd 883d
000001d0: 06b1 433d d285 2dbc 07f0 5e3d e693 c53c
000001e0: 46ad 1f3d 1705 57bc deb0 99bd acc5 403c
000001f0: 1fba 593d 6411 1d3d 3cef c93d 1206 a9bc
0.038755067 -0.00901955 0.01633194 0.11857156 0.011563882 0.04977327 -0.030908613 0.040596724
0.025715617 0.024819078 0.10252094 -0.004291739 0.10729665 0.087434016 0.028271778 0.06820811
0.00826204 0.065511025 0.017064739 -0.026540356 0.0075437487 0.009701206 0.040767442 0.065461226
-0.025026642 -0.040148165 0.02430991 -0.0005666707 -0.027701784 0.038515102 0.100302845 0.0203113
0.023131741 0.024806371 0.00045441187 -0.034213394 0.01508189 0.0002771196 0.00735138 0.013747843
-0.053942863 -0.036611896 0.0073242593 0.062196292 0.032649133 0.06349862 0.06964985 -0.059156176
0.02959984 0.11552403 0.025550134 0.043435737 0.04328327 0.03730529 -0.04553008 0.08068297
-0.06543319 -0.027448146 0.026614605 0.019570818 0.05089488 -0.014999121 0.0122300405 0.01163244
0.017926998 0.03811355 0.06191796 0.065379396 0.020123547 0.049117558 -0.018237662 -0.031747833
0.034999806 0.015982974 0.03982613 0.031097116 0.103198044 -0.018618902 0.07684585 0.015125064
-0.003609878 0.06662911 0.04174043 0.11602676 0.073588856 0.076558925 0.0589548 -0.014044021
0.04320171 0.029658504 -0.06299485 0.07177851 0.06737452 0.054965906 -0.031246262 0.024603711
0.028917052 -0.046542645 0.06316894 0.120191336 0.024350433 0.049581956 0.018865442 -0.012866079
0.009916377 0.085052595 -0.03271191 -0.0071673766 0.03744052 0.004210774 0.07410013 0.059393436
-0.059646677 0.04796301 -0.037817106 0.06676689 0.047776245 -0.010590987 0.054428127 0.024118375
0.038983606 -0.013123772 -0.07504438 0.011765879 0.053156015 0.038346663 0.098600835 -0.020632777

network_body._body_endoder.seq_layers.2.weight f4 [128, 128]
00000000: a417 b73d 402b 49be 3b20 0f3d fed9 603e
00000010: c4ae b63c 3991 0cbe c964 0fbe 1f5e 253c
00000020: 42a0 c73d 88ee c2bd 4b25 33bd d81e 083d
00000030: 2db0 9bbd cbeb 3ebe 92da aebc df2f b33d
00000040: 5c22 98bd 0f6a 113e c8f3 0abe dc35 cabd
00000050: e5e1 25be 5883 293d e93b a7bc 24e0 b93d
00000060: 89bc e0bd 04aa 4bbd 3694 05be 39ce 04be
00000070: 0cca 2fbe b41b 0dbd b0c1 dc3d 9a7f 52bc
00000080: 6555 93bd a221 70bd fadf a8bd 7da6 abbd
00000090: c499 273d 0af1 123e 4c60 a93c 5f08 ecbd
000000a0: 148d cfbc 1cae 2b3b b776 993c 8aef a83d
000000b0: fade 96bd 9024 e83d bb50 253e b262 96bb
000000c0: 77f0 44be c902 ae3d 1981 3b3d 8c70 b93d
000000d0: b488 59bc 7fdf 093e 1c79 7dbd 88d4 17bd
000000e0: 343f 76bc 18a7 213b 4f8b e1bd 09d7 c9bc
000000f0: a019 873d 11b1 a43b 7bcc bbbd f05a 413c
00000100: dca6 26bd aed2 453c d5a6 e13c 9b49 f93c
00000110: 6471 cabd c13b 253d 6e29 56be 1591 ab3c
00000120: d375 fb3d 5c1b afbd 9b96 bebd f064 4e3d
00000130: 328f 4dbc 63af dc3c bbdd 033c b119 9cbd
00000140: 5964 89bd dd09 8a3e 4eda 74bd 64cc 7ebc
00000150: 9b72 e2bb fd0c 2abe 1ffc 543c 4df3 06be
00000160: b59f 77bc 6d43 873b 9109 30be 7ccb 1f3e
00000170: b7c2 a9bd ba33 56bd ca53 a83c 52d1 12be
00000180: b65d 2e3e ceb3 c13d 33a0 63bb 3bbb eb3d
00000190: 76e3 e8bd bf69 a8bd 4806 9d3d 853c 06be
000001a0: bfb5 a6bd 7bbf 3bbe 379b 213d a85d 1fbe
000001b0: 45b9 943d 2778 e83d 9568 1d3e 906c 85be
000001c0: 7e57 8ebd 59ba ebbd 724a 25be 6d49 07be
000001d0: 70a8 31bd a575 0e3d 87a7 1e3d fe44 1fbe
000001e0: 8a17 1c3e cf71 babc 7b93 c53d 9edc a1bd
000001f0: 6b89 d23c e494 063e 8378 353e b180 a4bd
00000200: 4a8e 83bd 979b 3d3e 25e6 92bd 84e1 24bd
00000210: 2a70 d13b dd03 203e e24e 6a3e 16d5 283d
00000220: 6d1e a43e 5aca f23d c79d 1f3e bbbf e53c
00000230: bc46 a8bc 4575 673e 9032 edbd 7551 16be
00000240: bc95 b53c 314f 07be 3ffb 4c3e 3d29 c03b
00000250: 88c5 5d3d 28a3 393e 124e bbbd dbec 90bd
00000260: 0717 9a3d cac8 0e3d 09f2 323b f4da 663c
00000270: 50bb 393e 8d5c 573c 64d9 1ebe e8c8 a43d
00000280: 6661 c6bd cf3f b53d eaeb babd 30d4 3f3d
00000290: 5f05 61bd 41f8 6fbd 41ab 98be ccd5 b83d
000002a0: 2cbe 59bd 294a d7bd fd73 8d3d 3ad2 8b3d
000002b0: 01d5 753e c525 b7bd 9153 d33c 6457 b9bd
000002c0: 34d2 bc3d 251a 3fbe c8ee 83bd 7ac8 fabd
000002d0: ad71 3bbd 6824 dd3d 782e 9a3d 7b04 95bd
000002e0: 0120 04bd 4265 463c c62c 1abe ca7c 603d
000002f0: c632 113b 1191 c1bd b49c d03d c43f 22bd
00000300: cf4b 493d 7d4e 8f3d 85c0 4dbd 32c7 f4bd
00000310: 6324 083e d27c 18be b8ef ab3c 7fbc 2ebd
00000320: fee3 e33d 0623 49bd 1e43 9e3c 6553 1dbe
00000330: 84a6 a93d 08e3 09be e3ce 603c 8d88 e73d
00000340: a1ce 873c c862 86bd 5d5a d4bc 32b5 eb3d
00000350: 4f51 453e 3840 91bc 42d4 503d 956c b33d
00000360: f1e6 a43d e599 2c3d fdf5 043e 2841 dcbd
00000370: 1c53 e8bd 115b 973e acbc 083e f854 53bd
00000380: 0743 28be ef5f 42bb 2ade 1cbd 7e18 8c3d
00000390: dd35 e83d 953b e73c 3bc9 04bd 95fe 033e
000003a0: f8fa 5e3c 32e4 86bd 75bf ea3d bbe2 af3a
000003b0: f861 09be 210f be3d b9e6 173d fb48 ff3d
000003c0: 2b40 613d 8519 bf3d e530 763c a345 b23e
000003d0: 31a8 ed3c a96e 9d3c ff19 c7b9 8f6d 113e
000003e0: eb18 a33c 3fe1 d13c 0963 e0bd 6424 60bd
000003f0: 732d 86bd 458f e23c 8934 7f3d f2ce e53d
0.08940056 -0.19645405 0.034942847 0.21958157 0.022300132 -0.13727273 -0.1400329 0.010093241
0.097473636 -0.095181525 -0.043736737 0.03323254 -0.07601962 -0.18644635 -0.021344457 0.08749365
-0.074284285 0.14200614 -0.13569558 -0.09873554 -0.16199453 0.041385025 -0.02041431 0.090759546
-0.1097346 -0.049722686 -0.13044819 -0.12969293 -0.17166919 -0.034450248 0.107791305 -0.012847805
-0.07194022 -0.058625825 -0.08245845 -0.083813645 0.040918127 0.14349762 0.0206758 -0.11525034
-0.025335826 0.0026196307 0.018733365 0.082488135 -0.07366748 0.11335099 0.16144077 -0.004589402
-0.19232355 0.08496625 0.045777414 0.0905467 -0.0132772215 0.13464163 -0.061883077 -0.03706792
-0.015029717 0.0024666246 -0.11012899 -0.02463867 0.065966845 0.005025991 -0.09169861 0.011801466
-0.040686473 0.012074156 0.027545372 0.030430606 -0.09884909 0.04034019 -0.20914242 0.020943204
0.122783326 -0.0855014 -0.093060695 0.05038923 -0.012546347 0.0269391 0.00804847 -0.07622088
-0.06708593 0.2696065 -0.059778504 -0.01555166 -0.0069106347 -0.16606517 0.0129995635 -0.1317875
-0.015113761 0.004127911 -0.1719115 0.15604967 -0.08289092 -0.052295424 0.020547766 -0.14337662
0.17027935 0.09458123 -0.0034732937 0.11510321 -0.1137151 -0.082232945 0.07667214 -0.13109024
-0.08140134 -0.18334763 0.039454665 -0.15563071 0.072619 0.11351042 0.15371926 -0.2605939
-0.069502816 -0.11510152 -0.1614168 -0.13211603 -0.043373525 0.034780163 0.038733985 -0.15553662
0.15243354 -0.022759346 0.0964727 -0.079034075 0.025700292 0.13142735 0.17721753 -0.080323584
-0.06423624 0.18516384 -0.07172803 -0.04025413 0.006391545 0.15626474 0.22881654 0.04121884
0.32054463 0.11855002 0.15587531 0.028045526 -0.020541541 0.22603329 -0.1158191 -0.14679511
0.022166125 -0.13213803 0.20017718 0.005864291 0.05414346 0.18128645 -0.0914575 -0.070764266
0.07523923 0.034859456 0.0027304909 0.014090288 0.1813786 0.013144624 -0.15512615 0.08046132
-0.09686546 0.08850061 -0.09127028 0.046833217 -0.054936763 -0.058586363 -0.29818156 0.090251535
-0.053159878 -0.10512192 0.06906889 0.06827207 0.24007036 -0.08942751 0.025796684 -0.090498716
0.092197806 -0.18662317 -0.06442028 -0.12245269 -0.045762707 0.107979596 0.075283945 -0.07276245
-0.032257084 0.012109103 -0.15056142 0.054806508 0.0022155507 -0.09451497 0.10186139 -0.039611593
0.049144562 0.06997392 -0.05023243 -0.11952056 0.1329513 -0.14891365 0.02098833 -0.042660233
0.111274704 -0.049105667 0.019319113 -0.15363844 0.082837135 -0.13465512 0.013721201 0.11305342
0.01657802 -0.0656181 -0.025921995 0.1150917 0.19269298 -0.017730817 0.050983675 0.08760945
0.08051861 0.042138953 0.12984462 -0.10754615 -0.11343977 0.29561666 0.13353223 -0.051594704
-0.16431819 -0.0029659232 -0.03829781 0.06840609 0.113383986 0.028226653 -0.03241847 0.12890084
0.01360964 -0.065864936 0.11462299 0.0013419011 -0.13416278 0.09280229 0.03708527 0.12465092
0.054992836 0.09331039 0.015026306 0.34818754 0.029010864 0.019217806 -0.00037975606 0.1420195
0.019909343 0.025620101 -0.109563895 -0.054722205 -0.065516375 0.027656207 0.06230596 0.11221112

network_body._body_endoder.seq_layers.2.bias f4 [128]
00000000: 17fa 6a3d 1387 dc3b b5eb 78bc f4e0 19bb
00000010: d7aa 1ebc a285 13bc 1aa3 51bb 1bdb eebb
00000020: 5a9e 613d 7d2f 1a3a 7213 873d d973 6a3d
00000030: c8c2 d23c 510d 1b3d 60a8 c539 777e 2d3d
00000040: 132f 8bbc f807 543d 732d ce38 e346 133d
00000050: 6546 063d 4d13 763c deab 87bb 5100 c63a
00000060: c940 983c 2077 2d3c 2fa4 c03c efc2 083d
00000070: 3599 903d b6ab af3d 1134 0f3d 22cb 993d
00000080: a278 6c3d 68f8 083b 673b 1fbb 280a 29bc
00000090: aed1 a83c 091b 303c 72e9 e83c 9631 523d
000000a0: ce85 4f3c f963 863d f2b6 413c 73f0 00bd
000000b0: c696 933c efe8 a83c 305c 3c3d c9da e23c
000000c0: 19d3 a33d 3964 c53a 9103 76bc 302d f53c
000000d0: 6d82 c63c c234 873c f4f5 c4b9 b0f0 7bbb
000000e0: 006d e5bb 6cb6 073d 8e27 95bc 4e30 783d
000000f0: 70d3 773c 77f5 893d 353e 223d f3a5 85bc
00000100: 72d4 813c f631 ec3a 498d 873c 52f5 893c
00000110: f491 bebb 8bf9 52ba 1ccd 463c 7045 193d
00000120: fea9 7b3d 1f8e eb3c bff1 8cbb 2e4a d93c
00000130: 93df 193c 040c a53d 50d6 703d 9cbe 043d
00000140: 1d3c 833d e19f 423d 776d 763d 96ed 003d
00000150: 763f eebb b5ff a93d 3709 703d 16ed 073c
00000160: 8e6f 8939 eafe 673d 8329 043d 4184 af3c
00000170: 2e4b 243b 3994 5b3c b65c 023c cc19 88bc
00000180: 1e55 923d 0ad2 8e3c e54d 91bc 206a c43c
00000190: 4caa c7bb a975 9b3b f891 e53c 8a64 833d
000001a0: 1787 793d 6d11 953c a2d9 9e3d 36a2 883d
000001b0: d2e4 83bc 58c9 98bc 6faa 933d fc73 863d
000001c0: 9299 f5ba c39a 16bb d15b 223c 0d2b ba3b
000001d0: a82a dc3c ddd8 5e3d bd0f 923d fb2b b43c
000001e0: 8ac7 8ebc 3223 8d3d cfba a6bc bd01 463d
000001f0: d781 593d 235b f73c dae8 543d d7f1 c93c
0.05736741 0.0067299693 -0.015192916 -0.002348003 -0.009684286 -0.0090040285 -0.0031988085 -0.007289303
0.055082656 0.000588171 0.06595506 0.057239387 0.025727645 0.037854496 0.00037700217 0.042356934
-0.01699022 0.051765412 9.831311e-05 0.035956275 0.032781977 0.01501925 -0.004140361 0.0015106295
0.01858558 0.010587484 0.023515789 0.03338903 0.07060472 0.08577673 0.034961764 0.07509448
0.057732232 0.0020900015 -0.0024296881 -0.010317363 0.020607796 0.010748633 0.028431628 0.05131682
0.012666179 0.06562037 0.011823403 -0.03147931 0.01801623 0.020618884 0.045986354 0.027692216
0.07999248 0.0015059776 -0.015015499 0.029928774 0.024232114 0.01650465 -0.00037567283 -0.0038443021
-0.007001519 0.033132955 -0.018207338 0.060592942 0.015126094 0.06736272 0.039610106 -0.016314482
0.015848372 0.0018020261 0.016546862 0.01684061 -0.005815739 -0.0008048049 0.012133863 0.037419736
0.061441414 0.028754292 -0.0043012793 0.02652463 0.009391683 0.080589324 0.058798134 0.03240834
0.0640795 0.047515754 0.060162988 0.03147658 -0.0072707487 0.08300725 0.058602538 0.008296272
0.0002621379 0.05663959 0.03226615 0.021425368 0.0025069225 0.013402038 0.007956674 -0.016613863
0.07145141 0.017434139 -0.017737338 0.023976386 -0.006093299 0.004744251 0.028023705 0.06415661
0.060919847 0.018196786 0.07756354 0.06671564 -0.016100321 -0.018650696 0.07210242 0.06565091
-0.0018737784 -0.0022980429 0.009909586 0.0056814016 0.026875809 0.054406036 0.07131908 0.021993628
-0.017429132 0.068914786 -0.02035275 0.0483415 0.05310234 0.030194825 0.051979877 0.024651451

action_model._discrete_distribution.branches.0.weight f4 [4, 128]
00000000: 0b6f 233c 35e6 66bd 4be0 efbc a42a d4bc
00000010: 32c7 07bc bf63 b53c 82c0 a1bc 5026 3ebd
00000020: 9639 b13c 68f7 67bd b7da cf3c a1ef b13c
00000030: 1886 4d3c 34da 9abd 3324 42bd 475d bb3c
00000040: 9451 463b 7a73 47b9 68f6 9dbc 6db2 8d3b
00000050: eb19 e23b 3496 3dbb dc0a 0abc c475 dabc
00000060: 9a5c d4bb bd5f b23c 89ff 9abd 5629 2f3a
00000070: 39f3 df3b d490 653c ce61 a3b9 fb32 153c
00000080: 7dda e5bc 63e7 09bd a35d 843b 1e2a 02bc
00000090: 7f96 9fbd ad98 98bd 47a6 b7bd 811a 033d
000000a0: 1703 913c 3771 183d 6ede 5fbd c43c 2cbc
000000b0: df42 82bd 6310 343c 93e3 86bd a3c6 323c
000000c0: e73f 4c3b 2243 b1bc 326d 933b f8c3 98bc
000000d0: 2499 f13b e823 d3bb 7e42 08bc 7cfd 89bb
000000e0: d371 3dbc 7439 db3c c79e 46bc 30d2 813c
000000f0: 523a 33bd 114c 1c3c a155 5bbb 83b4 4a3c
00000100: a3c3 7b3c 58c7 d7bc d256 fa3c c2b9 b7bc
00000110: c58e 043c 4263 0a3c 7e90 33bd 0189 a83c
00000120: afae 913c 2490 863c f850 4eb9 1616 0bbc
00000130: ba9b c2bc 57a1 603c 5601 f33c d982 4ebc
00000140: 5627 e53c 257e 1c3d 6a8c b1bd 04b6 a4bd
00000150: 8e5f b0bc 01fb 883c 82ea 9a3c c630 e0bb
00000160: 00a0 21bd 64ef 703c 91e2 5b3c 1f24 3abd
00000170: 80f8 4ebd 967a 20bc dffd c33b b8f7 b5bc
00000180: ed5a 9d3c 806e 14bd 58da 69bb 9267 a9bd
00000190: 83f0 4fbd 5121 a6bb ab07 2ebd 4c53 ce3b
000001a0: 0551 343b 3e9f c3bd d911 c33c ab35 e53b
000001b0: 9665 c73c a3a5 0bbd c322 ba3c f9bb d23c
000001c0: a250 143d c859 c9bc 54e2 91bb 486c 3ebd
000001d0: 5d5b 30ba 4ca3 3cbc bee5 e83b ec2f 97bd
000001e0: 3c81 573b 4b33 be3c d48a afbc b5cc 1dbc
000001f0: f7d9 ad3b d1a5 c33c 6f01 4dbd a0f8 a73c
00000200: 722b dbbd b4a5 b73d 01da b73c 0af7 583d
00000210: 62f6 293d 4c46 1dbc 1b6b b03d b02c c33d
00000220: 10ca d5bd cf29 ac3d eae0 d6bd 972d f3bd
00000230: 59a2 dabc 6483 fd3d f47b f23d 7baa 57bd
00000240: 4135 683c f3b6 95bd f9f6 883d 66a0 06bd
00000250: 136f 26bd 8b05 7abc 8869 28bc 2529 303d
00000260: bd3f 9dbc dc6d 29bb 9e7f 113e 4f11 0abd
00000270: 9d16 f5bd 279b 0bbe bf23 d6bc df93 efbd
00000280: 0fe2 8d3d 0f1d cb3c ab77 efbb 4b8f fa3c
00000290: 9929 073e f96c fa3d 5650 263e 04b5 c4bd
000002a0: a713 1cbd ca7f c3bd 6579 ca3d 5a06 be3c
000002b0: a8c7 fc3d 7986 c0bc eea0 043e 3609 2dbd
000002c0: fec3 febd fd61 9d3d dca3 ca3c 1fee 47bd
000002d0: 3a00 09bd 8986 1dbd 22c1 91bc 2e87 813d
000002e0: e3c4 2a3c 826e 7cbb b420 003d e203 dabd
000002f0: e1c8 c23d 4bbb f8bd 6a45 81bd 0235 9e3c
00000300: 9e34 5cbc 9882 873d d8cd 1fbd e0a4 3b3d
00000310: 450a 433d ba87 543c 6898 cc3d eee2 53bd
00000320: 0155 e5bd d4a7 3ebd 7421 e93c 0217 14bd
00000330: e363 4d3d 9aa4 e9bd 1f98 8abd 8fb4 0abd
00000340: b656 e4bd 5a01 a5bd 7ac4 013e 4765 ef3d
00000350: a24f 183d 9112 06be 0065 82bd 159e 74bc
00000360: 4016 a13d 9fb8 a4bd f760 47bd 5271 e43d
00000370: 2d03 af3d c47f 3bbc cb55 793d bb9c 7a3d
00000380: 7f7e f8bd 2a22 873d 0923 0f3d 7ae3 0d3e
00000390: 45c7 b43d 6066 163b a1c9 c73d f6d4 b1bd
000003a0: acfb a5bd 2b43 273e 698c edbd 6070 abbd
000003b0: d9aa 993c 12d8 823d 9573 d8bd 6c56 e3bd
000003c0: 9253 ceb9 2a1a ac3c 1243 bc3d b5c0 b23d
000003d0: 3e26 07bd 82ab b8bd cd57 febd 66bb cf3d
000003e0: 99f1 8f3c 8606 03be eb66 993d 3853 e8bd
000003f0: 6c5f 97bd 6ef2 883c 2b74 a93d c8ee 47bd
0.009975205 -0.056371886 -0.029281756 -0.025899239 -0.008287238 0.02214229 -0.019745115 -0.046423256
0.021633904 -0.05663243 0.025372846 0.02172071 0.0125441775 -0.0756115 -0.047397804 0.022871627
0.0030261027 -0.00019021137 -0.019282535 0.0043242485 0.0069000623 -0.002892864 -0.008425441 -0.026667483
-0.0064807655 0.021774167 -0.07568271 0.000668188 0.0068344143 0.0140115805 -0.00031162653 0.009106393
-0.028058285 -0.033667933 0.0040394827 -0.007944612 -0.07792377 -0.074509956 -0.08967262 0.032007698
0.017701669 0.037217345 -0.054655485 -0.0105125345 -0.06360411 0.010990235 -0.06586375 0.0109116165
0.0031166018 -0.021638457 0.004499101 -0.018648133 0.007372992 -0.0064434893 -0.008316634 -0.004211126
-0.011562782 0.026760794 -0.012122816 0.015847296 -0.04375679 0.00953962 -0.0033467787 0.012372139
0.015366468 -0.026340172 0.030558977 -0.022427443 0.0080906795 0.0084465165 -0.04383897 0.020573141
0.017783491 0.016426153 -0.00019675854 -0.008489152 -0.023755897 0.013710341 0.029663723 -0.012604439
0.027972858 0.03820624 -0.0866936 -0.08042529 -0.021529939 0.01672125 0.01891065 -0.0068417517
-0.03945923 0.014705513 0.013420717 -0.045444604 -0.050529957 -0.009794852 0.0059811915 -0.022212848
0.019208396 -0.036238194 -0.0035683122 -0.082717076 -0.05076648 -0.0050698896 -0.04248778 0.006296551
0.0027514112 -0.095518574 0.023812221 0.006994923 0.024340432 -0.03409351 0.022721654 0.025724398
0.03620971 -0.024578944 -0.0044520292 -0.046489984 -0.00067274814 -0.011513542 0.0071074655 -0.07382187
0.0032883426 0.023217818 -0.021428503 -0.0096313255 0.0053055244 0.023882778 -0.050050195 0.020504296
-0.10701646 0.08967152 0.02244282 0.05296997 0.041494735 -0.00959928 0.08614179 0.09530008
-0.10438931 0.08406412 -0.10492118 -0.1187393 -0.026688742 0.123785764 0.118400484 -0.052652817
0.014172853 -0.073102854 0.06687731 -0.03286781 -0.040633272 -0.015260111 -0.010279067 0.04300799
-0.019195432 -0.0025852835 0.14208838 -0.033707913 -0.11967204 -0.13633405 -0.026140092 -0.11698126
0.06927883 0.02479413 -0.0073079667 0.030585906 0.13199462 0.12227816 0.16241583 -0.096048385
-0.03810468 -0.09545858 0.098864354 0.023196388 0.12342769 -0.023501622 0.12952015 -0.042245112
-0.12439726 0.076847054 0.024736337 -0.048811074 -0.03344748 -0.03845838 -0.017792288 0.063246116
0.010422918 -0.0038518016 0.031281188 -0.10645272 0.09510971 -0.12145098 -0.06312068 0.019312385
-0.013440279 0.06616706 -0.039014667 0.045811534 0.047617216 0.012971813 0.09990007 -0.05173009
-0.11197854 -0.046546772 0.028458335 -0.036154754 0.050144088 -0.114083484 -0.06767296 -0.0338636
-0.11149351 -0.080568984 0.12672606 0.11689239 0.03718532 -0.1309302 -0.063669205 -0.014930268
0.07865572 -0.08043026 -0.048676457 0.11154427 0.085455276 -0.011444036 0.060872834 0.061184626
-0.12133502 0.06598313 0.03494552 0.13856307 0.0882707 0.0022949204 0.097552545 -0.08683197
-0.08104643 0.16334216 -0.11599047 -0.08371043 0.018758224 0.063888684 -0.105689205 -0.11100468
-0.00039353647 0.02100857 0.0919248 0.08728162 -0.032995455 -0.090170875 -0.124190904 0.10143165
0.017571257 -0.12795457 0.07490333 -0.11343998 -0.07391247 0.016717162 0.082741104 -0.048811704

action_model._discrete_distribution.branches.0.bias f4 [4]
00000000: e715 1b3b d3d1 e9bc f1e6 d73c 38f9 513c
0.0023664178 -0.028542435 0.026355239 0.012815766
